Model: "DSConvModelMedium"
_________________________________________________________________
Layer (type)                 Output Shape              Param #   
=================================================================
input_1 (InputLayer)         [(None, 40, 126, 1)]      0         
_________________________________________________________________
conv2d (Conv2D)              (None, 40, 63, 172)       7052      
_________________________________________________________________
batch_normalization (BatchNo (None, 40, 63, 172)       688       
_________________________________________________________________
depthwise_conv2d (DepthwiseC (None, 19, 31, 172)       1720      
_________________________________________________________________
batch_normalization_1 (Batch (None, 19, 31, 172)       688       
_________________________________________________________________
activation (Activation)      (None, 19, 31, 172)       0         
_________________________________________________________________
conv2d_1 (Conv2D)            (None, 19, 31, 172)       29756     
_________________________________________________________________
batch_normalization_2 (Batch (None, 19, 31, 172)       688       
_________________________________________________________________
activation_1 (Activation)    (None, 19, 31, 172)       0         
_________________________________________________________________
depthwise_conv2d_1 (Depthwis (None, 17, 29, 172)       1720      
_________________________________________________________________
batch_normalization_3 (Batch (None, 17, 29, 172)       688       
_________________________________________________________________
activation_2 (Activation)    (None, 17, 29, 172)       0         
_________________________________________________________________
conv2d_2 (Conv2D)            (None, 17, 29, 172)       29756     
_________________________________________________________________
batch_normalization_4 (Batch (None, 17, 29, 172)       688       
_________________________________________________________________
activation_3 (Activation)    (None, 17, 29, 172)       0         
_________________________________________________________________
depthwise_conv2d_2 (Depthwis (None, 15, 27, 172)       1720      
_________________________________________________________________
batch_normalization_5 (Batch (None, 15, 27, 172)       688       
_________________________________________________________________
activation_4 (Activation)    (None, 15, 27, 172)       0         
_________________________________________________________________
conv2d_3 (Conv2D)            (None, 15, 27, 172)       29756     
_________________________________________________________________
batch_normalization_6 (Batch (None, 15, 27, 172)       688       
_________________________________________________________________
activation_5 (Activation)    (None, 15, 27, 172)       0         
_________________________________________________________________
depthwise_conv2d_3 (Depthwis (None, 13, 25, 172)       1720      
_________________________________________________________________
batch_normalization_7 (Batch (None, 13, 25, 172)       688       
_________________________________________________________________
activation_6 (Activation)    (None, 13, 25, 172)       0         
_________________________________________________________________
conv2d_4 (Conv2D)            (None, 13, 25, 172)       29756     
_________________________________________________________________
batch_normalization_8 (Batch (None, 13, 25, 172)       688       
_________________________________________________________________
activation_7 (Activation)    (None, 13, 25, 172)       0         
_________________________________________________________________
average_pooling2d (AveragePo (None, 6, 12, 172)        0         
_________________________________________________________________
flatten (Flatten)            (None, 12384)             0         
_________________________________________________________________
dense (Dense)                (None, 10)                123850    
=================================================================
Total params: 262,998
Trainable params: 259,902
Non-trainable params: 3,096
_________________________________________________________________

Train loss:	0.01
Train accuracy:	0.997
Val loss:	0.356
Val accuracy:	0.943
Test loss:	0.266
Test accuracy:	0.95
Bias:		0.003
Variance:	0.054
Precision:	0.95
Recall:		0.95
F1:		0.95